notebooks/model_base.pth (torch, 1706 bytes, 2 tensors)

linear.weight f4 [3, 15]
0.034658875 -0.09553525 0.006873963 -0.039582755 0.046217427 0.08009127 -0.03373779 0.04138768
0.11280359 0.09029276 0.038782563 0.015779836 0.94161254 -0.126763 -0.2323247 -0.04805434
0.16002342 0.018088814 -0.03969963 0.1505754 0.016670331 -0.069244735 0.21241403 0.03618357
-0.040637236 0.21717791 0.047246847 0.23616031 0.088632755 -0.08065852 -0.007386562 0.001497822
0.11480739 -0.009815721 0.0047044274 0.13064018 -0.01949252 0.017506082 0.17150028 -0.0118978815
0.017537823 0.22684284 0.052155104 -0.023317818 0.27522263
00000000: 77f6 0d3d fca7 c3bd fb3e e13b 8721 22bd
00000010: 7c4e 3d3d e406 a43d a330 0abd 2186 293d
00000020: 9205 e73d 69eb b83d 77da 1e3d b744 813c
00000030: 850d 713f 29ce 01be 87e6 6dbe a1d4 44bd
00000040: 2edd 233e fe2e 943c 149c 22bd 7030 1a3e
00000050: 3890 883c 2fd0 8dbd 1083 593e 3935 143d
00000060: 3b73 26bd e363 5e3e e985 413d 02d4 713e
00000070: 1785 b53d 4b30 a5bd f90a f2bb 9152 c43a
00000080: 2320 eb3d 1ed2 20bc 9927 9a3b 8ac6 053e
00000090: c7ae 9fbc ea68 8f3c c59d 2f3e 55ef 42bc
000000a0: 7bab 8f3c 7d49 683e 97a0 553d 0205 bfbc
000000b0: fbe9 8c3e

linear.bias f4 [3]
0.95846355 0.9916964 0.1744446
00000000: de5d 753f d1df 7d3f 9ba1 323e
